gnn_model.pth (torch, 336402 bytes, 11 tensors)

initial_conv.bias f4 [128]
-0.09195102 -0.040189177 0.18501903 0.077707104 -0.3003652 0.0 0.0 0.122807965
-0.06386324 -0.12538302 -0.04582107 -0.088536754 0.0 0.0 0.0 -0.08265103
-0.052274473 0.0 0.0 -0.08213951 0.0 0.0 -0.012697158 0.0
-0.2860801 0.06272466 0.08099778 -0.26692787 -0.17205918 -0.15783872 -0.06769267 -0.054183174
0.0 -0.2016707 0.0 0.0 0.0 -0.1856167 0.0 -0.07226979
-0.19221357 0.0 0.0 0.0 0.0 -0.036203522 -0.05350422 -0.16264726
-0.21651526 0.0 -0.11416895 -0.077628665 0.0 0.0 -0.11054318 0.27287582
0.0 -0.14031535 0.0 0.0 -0.023063805 -0.060596317 -0.10615192 -0.24048506
0.039424006 0.0 -0.12978746 0.0 -0.17544165 -0.18374299 0.0 -0.046260945
-0.07639214 0.062236596 0.0 0.0 -0.064185776 0.0 -0.24838267 -0.029107708
-0.07971974 0.0 0.0 -0.09420788 -0.16998641 0.0 -0.080702916 -0.121793896
-0.1669202 -0.061566617 0.0 -0.06685909 -0.16859049 -0.16234176 -0.12596966 -0.17627889
-0.21031046 0.0 -0.042806435 -0.0103824865 -0.09272315 -0.07209262 -0.115017146 0.2050772
-0.097329065 0.0 -0.26045242 -0.21876892 -0.1496003 -0.12896499 0.0 -0.122613125
-0.16983089 0.016453607 0.0 -0.2729537 -0.18925835 -0.25390083 -0.302559 -0.04503074
-0.12544362 0.0 0.0 -0.10578395 -0.15793198 0.0 0.0 -0.045281563
00000000: d150 bcbd 689d 24bd a175 3d3e e724 9f3d
00000010: 78c9 99be 0000 0000 0000 0000 be82 fb3d
00000020: bbca 82bd 6864 00be e0ae 3bbd c252 b5bd
00000030: 0000 0000 0000 0000 0000 0000 f144 a9bd
00000040: c21d 56bd 0000 0000 0000 0000 c238 a8bd
00000050: 0000 0000 0000 0000 be07 50bc 0000 0000
00000060: 1779 92be c975 803d 2ae2 a53d c5aa 88be
00000070: 4830 30be 79a0 21be 74a2 8abd 2def 5dbd
00000080: 0000 0000 c482 4ebe 0000 0000 0000 0000
00000090: 0000 0000 4e12 3ebe 0000 0000 2f02 94bd
000000a0: a2d3 44be 0000 0000 0000 0000 0000 0000
000000b0: 0000 0000 254a 14bd 3e27 5bbd 018d 26be
000000c0: 2db6 5dbe 0000 0000 69d1 e9bd c7fb 9ebd
000000d0: 0000 0000 0000 0000 7664 e2bd 61b6 8b3e
000000e0: 0000 0000 d4ae 0fbe 0000 0000 0000 0000
000000f0: 4ef0 bcbc d833 78bd 2e66 d9bd b741 76be
00000100: 117b 213d 0000 0000 01e7 04be 0000 0000
00000110: faa6 33be 1f27 3cbe 0000 0000 1e7c 3dbd
00000120: 7b73 9cbd cdeb 7e3d 0000 0000 0000 0000
00000130: d573 83bd 0000 0000 0758 7ebe 4a73 eebc
00000140: 1a44 a3bd 0000 0000 0000 0000 10f0 c0bd
00000150: eb10 2ebe 0000 0000 9247 a5bd 146f f9bd
00000160: 21ed 2abe 472d 7cbd 0000 0000 6bed 88bd
00000170: fca2 2cbe eb3c 26be 31fe 00be 7482 34be
00000180: a05b 57be 0000 0000 cd55 2fbd 4e1b 2abc
00000190: a3e5 bdbd 4ca5 93bd 1c8e ebbd c2ff 513e
000001a0: 7654 c7bd 0000 0000 055a 85be f604 60be
000001b0: d230 19be 660f 04be 0000 0000 971c fbbd
000001c0: 26e8 2dbe b7c9 863c 0000 0000 96c0 8bbe
000001d0: f1cc 41be 4aff 81be 03e9 9abe 2772 38bd
000001e0: 4b74 00be 0000 0000 0000 0000 41a5 d8bd
000001f0: ecb8 21be 0000 0000 0000 0000 2979 39bd

initial_conv.lin.weight f4 [128, 2]
0.011533342 -0.21275522 0.0077597327 -0.0051579773 0.085038766 -0.41092736 0.045316342 -0.27483732
-0.022831663 0.123251796 -0.030298505 -0.0016614146 -0.04946146 -0.17938346 0.098493785 -0.4361729
-0.015800236 0.11968267 0.1391339 -0.09284624 -0.23059842 -0.0041912734 0.027600547 -0.284477
-0.048763916 -0.1287837 -0.018790225 -0.10574442 -0.08781736 -0.06820111 -0.34342822 0.12180379
0.14632869 -0.10888595 -0.024465792 -0.087678224 -0.19400902 -0.20906496 -0.006708482 -0.14650227
-0.13811213 -0.016762072 -0.07154227 -0.06950341 0.08312932 -0.2859281 -0.07397018 -0.10286401
-0.17367822 0.24818315 -0.056134913 0.046256606 -0.067637384 0.043351352 0.08650279 -0.12999968
-0.28402478 -0.0075467676 0.08727354 0.009437895 -0.022615511 0.098323 -0.09813787 -0.022065697
-0.14931749 -0.044272464 0.08840491 0.042013593 -0.13594489 -0.17227253 -0.14681007 -0.21201535
-0.16577464 -0.053128008 0.037785187 -0.16205135 -0.16340427 -0.17234536 0.1419136 -0.2162552
-0.12310197 0.03523577 -0.09942798 -0.023425529 -0.018700154 -0.05082626 -0.10892798 -0.19151169
-0.17366295 -0.11503562 0.13356179 -0.18973026 -0.2000207 -0.004891708 -0.0031958965 0.0066198716
0.08584013 0.04154409 -0.21300858 0.01905337 0.0077148224 -0.09848611 -0.29987073 0.107515514
-0.08035407 -0.122314826 -0.1936851 0.009596294 0.044486403 -0.08246994 0.04573172 -0.3666566
-0.20063117 0.003783097 0.098284155 0.02888189 -0.12508398 -0.02788735 -0.15837243 -0.10364118
-0.06351647 0.05538466 0.18203594 -0.2670909 0.16528139 -0.27266732 0.03962716 0.15390317
-0.09899621 0.12805086 -0.18305002 -0.082058 0.047035903 -0.18713501 -0.043976665 -0.08954122
0.04398567 0.03288493 0.035709906 -0.2024369 -0.17439179 0.023236629 -0.007914364 -0.07575281
-0.15854566 0.021182723 -0.0068037407 0.025097417 -0.05287088 -0.19455189 -0.20199971 -0.10269411
-0.1718219 0.0040938365 -0.06254062 -0.084047996 0.11474115 0.03217355 0.10879845 -0.3581955
-0.17237593 -0.007855061 -0.14313887 -0.14043815 -0.010376434 -0.078578 -0.26747575 0.022880202
0.10705867 -0.0053566024 -0.03740553 -0.19899537 -0.16041842 -0.00819914 0.029577922 -0.12490923
-0.2015682 0.03406475 -0.36050743 0.12056778 -0.08334607 0.0032881275 -0.08679134 -0.040693957
-0.24567571 0.09097438 -0.14145008 0.073449686 0.107930265 -0.28484172 -0.3361505 0.04464403
0.09329824 -0.43839055 -0.016607411 -0.21185392 -0.21910687 -0.00881144 -0.0042576306 0.0016373979
-0.25029144 0.14703514 -0.021774672 -0.20458438 -0.09083879 -0.010366975 0.052502275 -0.39012238
-0.017854987 -0.20450924 -0.17851463 -0.11734418 0.088291705 0.10683631 0.13455062 0.08109804
0.08144869 -0.13164331 -0.24301459 0.022192152 -0.11132351 -0.14498444 -0.17083733 0.0009806483
0.02814685 -0.17152081 -0.13636136 0.030634439 -0.12663056 -0.13987043 0.044058334 -0.22255228
0.08253835 0.15378238 0.034146912 -0.13158938 0.043860625 -0.25795498 -0.060804226 -0.04027839
-0.025635803 0.18926784 -0.055676304 -0.09081392 -0.052025355 -0.10379174 -0.03143308 0.0063026757
0.12511027 0.059372403 -0.15810345 -0.11530268 -0.047201585 -0.03959918 -0.06411809 -0.20965977
00000000: 58f6 3c3c 81dc 59be 5b45 fe3b 4004 a9bb
00000010: ce28 ae3d 1265 d2be a19d 393d 7ab7 8cbe
00000020: 7809 bbbc 706b fc3d 9234 f8bc d3c3 d9ba
00000030: 1a98 4abd 4cb0 37be 1cb7 c93d 0e52 dfbe
00000040: 7f6f 81bc 301c f53d 1e79 0e3e 2b26 bebd
00000050: fe21 6cbe f356 89bb 8b1a e23c f8a6 91be
00000060: acbc 47bd e0df 03be f5ed 99bc 8890 d8bd
00000070: 97d9 b3bd 06ad 8bbd d3d5 afbe 4474 f93d
00000080: 30d7 153e 99ff debd 7c6c c8bc a490 b3bd
00000090: 4daa 46be 2015 56be d3d2 dbbb b104 16be
000000a0: 446d 0dbe 9d50 89bc c184 92bd ce57 8ebd
000000b0: b43f aa3d 2b65 92be ad7d 97bd 5eaa d2bd
000000c0: b4d8 31be b923 7e3e b9ed 65bd 9177 3d3d
000000d0: 7885 8abd 3091 313d 6028 b13d a31e 05be
000000e0: b26b 91be e04a f7bb 78bc b23d 67a1 1a3c
000000f0: 2a44 b9bc 925d c93d 82fc c8bd 1fc3 b4bc
00000100: afe6 18be 0b57 35bd a20d b53d 7216 2c3d
00000110: 2335 0bbe 3668 30be 6155 16be 8d1a 59be
00000120: d4c0 29be c19c 59bd a4c4 1a3d caf0 25be
00000130: 7353 27be 4d7b 30be cc51 113e 0172 5dbe
00000140: e31c fcbd 6253 103d e6a0 cbbd e5e6 bfbc
00000150: 1131 99bc 322f 50bd a215 dfbd a41b 44be
00000160: b3d4 31be cc97 ebbd 6cc4 083e a648 42be
00000170: 3ad2 4cbe 9f4a a0bb 3f72 51bb 82eb d83b
00000180: f3cc af3d 232a 2a3d ec1e 5abe d015 9c3c
00000190: 9fcc fc3b 16b3 c9bd a888 99be 1831 dc3d
000001a0: ad90 a4bd 3280 fabd 6355 46be c639 1d3c
000001b0: 6037 363d 00e6 a8bd 2f51 3b3d 6aba bbbe
000001c0: 4272 4dbe d6ed 773b 3449 c93d b799 ec3c
000001d0: 0416 00be 0374 e4bc 622c 22be d441 d4bd
000001e0: ec14 82bd 06db 623d a167 3a3e 23c0 88be
000001f0: 863f 293e 0d9b 8bbe 1750 223d cb98 1d3e
00000200: 86be cabd c41f 033e 7771 3bbe 060e a8bd
00000210: b8a8 403d 52a0 3fbe e020 34bd 6361 b7bd
00000220: 512a 343d 59b2 063d 8d44 123d 9e4b 4fbe
00000230: c393 32be be5a be3c 40ab 01bc 4a24 9bbd
00000240: cb59 22be 6487 ad3c eaf1 debb 1999 cd3c
00000250: 238f 58bd 9c38 47be 03d9 4ebe 4a51 d2bd
00000260: 15f2 2fbe 9725 863b 4c15 80bd 5b21 acbd
00000270: 68fd ea3d 6ac8 033d b9d1 de3d 6765 b7be
00000280: 5183 30be 84b2 00bc ff92 12be 05cf 0fbe
00000290: eb01 2abc 81ed a0bd 95f2 88be 436f bb3c
000002a0: 9341 db3d 7086 afbb 8b36 19bd 71c5 4bbe
000002b0: ba44 24be b055 06bc 664d f23c 69d0 ffbd
000002c0: e567 4ebe 7b87 0b3d 6e94 b8be 3eec f63d
000002d0: 58b1 aabd a07d 573b a8bf b1bd b5ae 26bd
000002e0: 6a92 7bbe c750 ba3d 4ad8 10be ca6c 963d
000002f0: 8b0a dd3d c6d6 91be eb1b acbe a9dc 363d
00000300: 2613 bf3d ba74 e0be 440c 88bc 3cf0 58be
00000310: 8d5d 60be dc5d 10bc 9883 8bbb f59d d63a
00000320: 3326 80be 6190 163e cc60 b2bc 917e 51be
00000330: b009 babd 3fda 29bc a00c 573d 1fbe c7be
00000340: 9f44 92bc df6a 51be 8acc 36be 2552 f0bd
00000350: 48d2 b43d ffcc da3d a3c7 093e bb16 a63d
00000360: 92ce a63d 81cd 06be d1d8 78be 51cc b53c
00000370: 95fd e3bd cd76 14be fbef 2ebe 1989 803a
00000380: 3994 e63c 27a3 2fbe 50a2 0bbe 13f5 fa3c
00000390: 71ab 01be 323a 0fbe 8376 343d bfe4 63be
000003a0: de09 a93d 2179 1d3e a2dd 0b3d 5ebf 06be
000003b0: 33a7 333d ad12 84be da0d 79bd f4fa 24bd
000003c0: 2d02 d2bc 6ecf 413e d60c 64bd a6fc b9bd
000003d0: 8a18 55bd c490 d4bd f9bf 00bd ad86 ce3b
000003e0: e81c 003e 7a30 733d dfe5 21be d023 ecbd
000003f0: 7356 41bd c032 22bd 5850 83bd 0db1 56be

conv1.bias f4 [128]
-0.05148104 -0.14229275 -0.060035694 -0.045909878 -0.028262012 0.037378147 -0.08002052 -0.079403475
-0.059986442 -0.05250009 -0.08920937 -0.030333916 0.0 -0.040681545 -0.060043834 -0.13235639
-0.22508083 0.08613596 -0.07068627 -0.060036585 -0.0044146813 -0.060052015 -0.050763912 -0.060051776
-0.06000426 -0.06053731 -0.119383596 -0.057210788 -0.062306702 -0.08579604 -0.07335481 -0.1595635
-0.07613496 -0.077360116 -0.06141386 -0.021119827 -0.07739235 -0.0605892 -0.060048617 -0.085929476
-0.074440904 -0.07732138 -0.070885345 -0.031634595 0.020631645 -0.055378966 -0.039558437 -0.06002988
-0.096624166 -0.060048427 -0.09724841 -0.07731486 -0.0783405 -0.050934225 0.02905522 -0.09794426
-0.060871627 -0.16647033 -0.06005184 -0.07493949 -0.111317165 -0.051306155 0.039346214 -0.060052395
-0.065075986 0.008127596 -0.10566965 -0.08349894 -0.06862006 -0.15856715 -0.028476622 -0.057659183
0.18658313 0.15820895 -0.10704626 -0.057430264 -0.0650359 -0.123743325 -0.054431677 -0.074780375
-0.05504719 -0.12540476 -0.011057414 -0.09915167 -0.08100054 -0.07717065 -0.032263864 -0.054122385
-0.04575159 -0.0600456 -0.08027506 -0.052179337 -0.05557936 -0.15450451 -0.04580998 -0.06786013
-0.013031595 -0.051926456 -0.0620231 -0.059327558 0.0017842638 -0.06452172 -0.14902091 -0.05862813
-0.0626111 -0.10543879 -0.07351508 -0.055717487 -0.090943925 0.05887897 -0.11889975 0.0
-0.061329372 -0.032845102 -0.053316742 -0.11200263 -0.06589126 0.15005994 -0.06473845 -0.055123057
-0.087696515 -0.07062075 -0.18184166 -0.05341676 -0.12985836 -0.060050342 0.00739754 -0.051440593
00000000: c8dd 52bd 31b5 11be fde7 75bd ff0b 3cbd
00000010: bc85 e7bc d419 193d cce1 a3bd 4a9e a2bd
00000020: 58b4 75bd 560a 57bd 67b3 b6bd d57e f8bc
00000030: 0000 0000 b1a1 26bd 86f0 75bd 6f88 07be
00000040: 977b 66be 0d68 b03d f7c3 90bd ece8 75bd
00000050: 08a9 90bb 1af9 75bd d2ed 4fbd daf8 75bd
00000060: 07c7 75bd f8f5 77bd 637f f4bd dc55 6abd
00000070: 5035 7fbd d6b5 afbd 0c3b 96bd 9d64 23be
00000080: a5ec 9bbd fb6e 9ebd 1a8d 7bbd 7d03 adbc
00000090: e17f 9ebd 622c 78bd 8af5 75bd cbfb afbd
000000a0: 7974 98bd ac5a 9ebd 562c 91bd 4793 01bd
000000b0: b203 a93c 0ed5 62bd 0708 22bd e4e1 75bd
000000c0: e4e2 c5bd 57f5 75bd 2d2a c7bd 4157 9ebd
000000d0: fc70 a0bd 68a0 50bd 3605 ee3c 0097 c8bd
000000e0: 8754 79bd 3377 2abe ebf8 75bd e079 99bd
000000f0: 41fa e3bd 6726 52bd 7f29 213d 80f9 75bd
00000100: 8f46 85bd 9c29 053c 5469 d8bd 7e01 abbd
00000110: ad88 8cbd 6d5f 22be ce47 e9bc 092c 6cbd
00000120: a60f 3f3e 8701 223e 123b dbbd ff3b 6bbd
00000130: 8b31 85bd 246d fdbd c0f3 5ebd 7426 99bd
00000140: 2a79 61bd 1b6a 00be 282a 35bc 0810 cbbd
00000150: 9ce3 a5bd a50b 9ebd 1d27 04bd 6faf 5dbd
00000160: 0566 3bbd 60f2 75bd 4067 a4bd 00ba 55bd
00000170: 2fa7 63bd 6e36 1ebe 3fa3 3bbd 40fa 8abd
00000180: 7982 55bc d6b0 54bd ef0b 7ebd 7401 73bd
00000190: f5dd e93a f723 84bd f098 18be 0d24 70bd
000001a0: 403a 80bd 4bf0 d7bd 138f 96bd 0538 64bd
000001b0: cf40 babd 132b 713d b681 f3bd 0000 0000
000001c0: 8234 7bbd 9688 06bd a862 5abd a361 e5bd
000001d0: fff1 86bd 50a9 193e 9895 84bd b7c8 61bd
000001e0: 3b9a b3bd 9da1 90bd b334 3abe 88cb 5abd
000001f0: 97f9 04be 59f7 75bd 1067 f23b 5fb3 52bd

conv1.lin.weight f4 [128, 128]
-0.13048725 0.09676313 -0.16046794 -0.10810802 -0.024404244 -0.0009026145 -0.017513856 0.06400606
0.080198295 -0.18640801 -0.1420381 -0.18732992 0.12740527 -0.018567983 -0.07577934 -0.10099971
-0.029893642 0.04380133 0.087841816 0.12356747 0.1361167 -0.10206258 -0.056856472 -0.09733775
-0.05523819 0.0044041923 0.046003245 -0.117297724 -0.08631139 -0.089398965 0.015521083 0.0042564576
0.11472045 -0.1855639 0.055643253 0.11594675 0.09643492 -0.17713135 -0.102183856 -0.04732833
0.0007256066 0.09120013 0.124862455 -0.010085929 -0.0449829 0.033904932 -0.09925232 -0.06984192
-0.02945933 -0.02576357 0.05291828 -0.030355372 0.016262883 0.043485988 -0.062065598 -0.04922516
0.095322736 0.036454942 -0.02337242 -0.09801934 -0.05019652 0.056238282 0.040364467 -0.088966
0.08369398 -0.01803791 -0.05426102 -0.072005436 -0.04318024 -0.057945307 0.038665984 -0.18850933
-0.009147618 -0.16700728 -0.14225088 -0.15178779 -0.02460631 0.028605806 -0.031188369 -0.011726689
-0.0657551 -0.101394884 -0.033123333 -0.114910305 -0.067902945 0.032135326 0.02136007 -0.16924268
0.14538264 0.1318772 -0.06857673 -0.13039878 0.022353807 0.034540325 -0.088353634 -0.070329815
-0.03538422 -0.09317273 -0.08022308 0.01940879 0.01731232 0.06177243 0.12947088 -0.049760118
0.052102108 0.10929374 -0.14352198 0.053799678 0.05925618 -0.05846669 0.11965906 -0.07018812
-0.073057204 0.10976692 0.07101826 -0.011030574 -0.16901146 0.042659562 -0.0051425872 -0.091393195
-0.04857196 0.11060375 0.064644486 -0.070392035 -0.05198547 -0.054110553 0.101049915 0.07184901
0.01629349 0.03494852 -0.061693314 0.02522222 0.11438868 -0.14682831 0.019539291 0.17465006
0.11233088 0.09514145 -0.0822233 0.028805347 -0.13072541 -0.07408881 0.038466074 0.007478305
0.09202911 -0.086248994 0.043964926 -0.03855017 -0.11288642 -0.058708087 -0.12428598 0.029030943
0.02444323 0.05008823 0.017365934 0.044484835 0.04601442 0.072597414 -0.10486478 -0.12617968
-0.12498797 -0.087010294 0.0306761 0.1443662 0.10599857 -0.025119722 0.035577297 0.11885197
-0.022905566 -0.12520032 0.018770615 0.062348913 0.025064133 0.16445136 0.06420328 -0.053224806
0.118886344 -0.13701408 -0.038926873 -0.017143395 0.004645514 0.13220973 0.09601549 0.0029116503
0.14640085 -0.08748615 0.028530998 0.048859607 0.15821266 0.17309959 0.09327041 -0.10055668
0.075082764 0.105396986 0.040360045 0.10990396 0.042246327 0.003796088 0.04729813 0.046187114
-0.088259 0.0640924 -0.001020054 -0.105181746 -0.16486034 0.050305437 -0.045165055 0.025925575
0.11362102 0.112942554 0.08505469 0.051326767 0.12076174 -0.10266714 0.071014985 -0.08774737
-0.14821933 -0.11290746 0.1496276 0.117939584 0.026663812 0.06922381 -0.115702294 -0.11542917
0.08002762 -0.04186047 0.053755272 -0.06014516 0.06439656 -0.07098879 0.02306792 0.116575435
-0.03552992 0.1352841 0.09914604 -0.052026242 -0.04040751 0.10162783 -0.037709057 0.0014587686
0.0779279 0.012708306 -0.07665912 0.12006042 0.05538442 0.0435928 -0.06954635 0.024021648
0.025939373 0.10856395 0.07849948 0.13150255 -0.0057138037 0.09949997 0.11777526 0.09224432
00000000: 739e 05be bf2b c63d b551 24be bd67 ddbd
00000010: 69eb c7bc 6f9d 6cba 3879 8fbc 9c15 833d
00000020: 013f a43d bee1 3ebe 7072 11be 6ad3 3fbe
00000030: 8776 023e e21b 98bc 3332 9bbd f0d8 cebd
00000040: 83e3 f4bc 0669 333d 69e6 b33d f110 fd3d
00000050: 2d62 0b3e 3006 d1bd 55e2 68bd 0459 c7bd
00000060: 7141 62bd 0b51 903b e66d 3c3d ca39 f0bd
00000070: 07c4 b0bd ce16 b7bd 244c 7e3c c179 8b3b
00000080: 8ef2 ea3d 7704 3ebe 2eea 633d 7d75 ed3d
00000090: ac7f c53d ec61 35be c545 d1bd 5adb 41bd
000000a0: a236 3e3a 22c7 ba3d e3b7 ff3d 743f 25bc
000000b0: fd3f 38bd e6df 0a3d cd44 cbbd 4809 8fbd
000000c0: b154 f1bc 1f0e d3bc d7c0 583d d4ab f8bc
000000d0: bd39 853c 5d1e 323d 7f38 7ebd 52a0 49bd
000000e0: 9138 c33d c751 153d 8477 bfbc 5dbe c8bd
000000f0: de9a 4dbd 1d5a 663d 3655 253d ce33 b6bd
00000100: c067 ab3d 3dc4 93bc ce40 5ebd 9677 93bd
00000110: c3dd 30bd 0f58 6dbd 3960 1e3d 9708 41be
00000120: e4df 15bc f503 2bbe 37aa 11be 426e 1bbe
00000130: 2c93 c9bc b956 ea3c c07e ffbc 4c21 40bc
00000140: 9caa 86bd 1fa8 cfbd 55ac 07bd 1856 ebbd
00000150: b310 8bbd 55a0 033d 50fb ae3c f44d 2dbe
00000160: 30df 143e d10a 073e f571 8cbd 4287 05be
00000170: 551f b73c 287a 0d3d c0f2 b4bd 1409 90bd
00000180: 0bef 10bd 58d1 bebd 004c a4bd 2fff 9e3c
00000190: 91d2 8d3c 1605 7d3d 0494 043e 44d1 4bbd
000001a0: 0569 553d 65d5 df3d 6df7 12be 0d5d 5c3d
000001b0: 9cb6 723d c57a 6fbd cf0f f53d cabe 8fbd
000001c0: 049f 95bd 7bcd e03d 0672 913d 95b9 34bc
000001d0: 5711 2dbe cbbb 2e3d 2683 a8bb 5b2c bbbd
000001e0: 64f3 46bd 3884 e23d 5464 843d b329 90bd
000001f0: b7ee 54bd 07a3 5dbd 42f3 ce3d 9325 933d
00000200: ed79 853c 2e26 0f3d 21b2 7cbd d49e ce3c
00000210: 9d44 ea3d 295a 16be dd10 a03c 77d7 323e
00000220: bb0d e63d 85d9 c23d b164 a8bd 31f9 eb3c
00000230: e2dc 05be e0bb 97bd 9a8e 1d3d 920c f53b
00000240: c279 bc3d 50a3 b0bd 9114 343d c8e6 1dbd
00000250: ff30 e7bd e477 70bd a689 febd 4dd2 ed3c
00000260: 2b3d c83c 5129 4d3d 0143 8e3c bb35 363d
00000270: 9e79 3c3d f4ad 943d 59c3 d6bd 3f35 01be
00000280: b1f9 ffbd 7432 b2bd 724c fb3c bcd4 133e
00000290: c715 d93d e0c7 cdbc 80b9 113d a968 f33d
000002a0: 74a4 bbbc 8334 00be d5c4 993c 9361 7f3d
000002b0: 4c53 cd3c f065 283e 027d 833d 4102 5abd
000002c0: af7a f33d 6b4d 0cbe c971 1fbd 4e70 8cbc
000002d0: 6539 983b fd61 073e c5a3 c43d 63d1 3e3b
000002e0: 1bea 153e f02b b3bd d7b9 e93c 0321 483d
000002f0: 8002 223e 0541 313e 8f04 bf3d a9f0 cdbd
00000300: fec4 993d 60da d73d 9350 253d 5415 e13d
00000310: 7c0a 2d3d cac7 783b afbb 413d b32e 3d3d
00000320: 22c1 b4bd e042 833d 55b3 85ba 8769 d7bd
00000330: 26d1 28be 130d 4e3d fefe 38bd df61 d43c
00000340: 23b2 e83d 6d4e e73d 2731 ae3d 043c 523d
00000350: ee51 f73d 2643 d2bd 4e70 913d e5b4 b3bd
00000360: cfc6 17be 073c e7bd fa37 193e 4f8a f13d
00000370: 116e da3c 37c5 8d3d 53f5 ecbd 2166 ecbd
00000380: 85e5 a33d e275 2bbd 7d2e 5c3d c55a 76bd
00000390: 58e2 833d 9262 91bd eff8 bc3c 1abf ee3d
000003a0: d287 11bd ea87 0a3e 140d cb3d 7819 55bd
000003b0: 5882 25bd 4022 d03d d074 1abd 2734 bf3a
000003c0: aa98 9f3d 8036 503c 75ff 9cbd 3de2 f53d
000003d0: c6da 623d 5d8e 323d 516e 8ebd 0cc9 c43c
000003e0: cf7e d43c c756 de3d 56c4 a03d 9ba8 063e
000003f0: dc3a bbbb a4c6 cb3d 2834 f13d 97ea bc3d

conv2.bias f4 [128]
-0.056659706 -0.060053367 -0.096397 -0.35338527 -0.0880818 -0.06751879 -0.15684909 -0.06804241
0.022885712 0.24278927 -0.060045365 0.1520606 -0.04850785 -0.055574678 -0.061268356 -0.026754176
-0.0071990057 -0.07147713 -0.05225703 -0.05407652 -0.04143747 -0.040287226 0.008231087 -0.17726226
-0.100428805 -0.03257832 -0.10309819 0.07203323 -0.042970814 -0.15012616 -0.05475552 -0.06005396
-0.057240922 -0.16310664 -0.055588286 -0.07304375 0.04991336 -0.001840632 -0.073165774 -0.06642614
-0.053163312 -0.060051836 -0.055588435 -0.08479215 -0.042550113 -0.043937534 -0.055588104 -0.060053375
-0.05247276 -0.0424198 -0.23571113 -0.06722378 -0.06005217 -0.09120292 0.1776656 -0.111749016
-0.0724023 0.10624868 -0.10248161 -0.084458016 -0.06244941 -0.033375632 -0.060053065 -0.05341898
-0.05322109 -0.089850105 -0.060052425 -0.081411056 -0.07254355 -0.013424663 -0.05558577 -0.18702768
0.22059338 -0.04485192 0.0 -0.1722787 -0.06247348 -0.08125514 -0.060052898 -0.07007673
-0.05852093 0.039054863 -0.04376938 -0.06005049 -0.060054246 -0.07757492 -0.11865149 -0.052805994
-0.06871424 -0.08479204 -0.095790386 -0.053899877 -0.060042664 -0.06786382 -0.09055649 -0.06432757
-0.059980765 -0.05227541 -0.09011275 -0.11074941 -0.060050763 -0.06004984 -0.08081301 -0.084173255
-0.060050026 -0.060053036 -0.0627592 -0.060038485 -0.14211342 0.19260545 -0.053469457 -0.060200997
-0.06897047 -0.060042616 -0.06516068 -0.06005329 -0.08663147 -0.06004467 -0.060052928 -0.07674602
-0.052959863 -0.07274609 -0.13763416 -0.052665446 -0.060017057 -0.07035544 -0.050812792 -0.060053084
00000000: 0214 68bd 85fa 75bd ca6b c5bd eaee b4be
00000010: 3b64 b4bd 4b47 8abd 0c9d 20be d259 8bbd
00000020: d17a bb3c c09d 783e 21f2 75bd c6b5 1b3e
00000030: 2bb0 46bd 46a2 63bd 87f4 7abd 932b dbbc
00000040: a3e5 ebbb 9a62 92bd 780b 56bd 577f 5dbd
00000050: 56ba 29bd 3804 25bd aedb 063c 3d84 35be
00000060: 9ead cdbd d870 05bd 2525 d3bd 2886 933d
00000070: 2a02 30bd acba 19be 5347 60bd 24fb 75bd
00000080: 7575 6abd 6d05 27be 8bb0 63bd f697 95bd
00000090: f471 4c3d 5c41 f1ba f0d7 95bd 6e0a 88bd
000000a0: c6c1 59bd eaf8 75bd b3b0 63bd 82a7 adbd
000000b0: 0749 2ebd d8f7 33bd 5ab0 63bd 87fa 75bd
000000c0: aded 56bd 62c0 2dbd 425e 71be 9fac 89bd
000000d0: 44f9 75bd 99c8 babd f9ed 353e abdc e4bd
000000e0: a847 94bd e898 d93d e1e1 d1bd 53f8 acbd
000000f0: f4ca 7fbd e3b4 08bd 34fa 75bd dccd 5abd
00000100: 5cfe 59bd 5503 b8bd 88f9 75bd d7ba a6bd
00000110: b691 94bd 1ef3 5bbc e8ad 63bd 2f84 3fbe
00000120: 3be3 613e a6b6 37bd 0000 0000 d469 30be
00000130: 31e4 7fbd 1869 a6bd 07fa 75bd 6384 8fbd
00000140: a5b3 6fbd fef7 1f3d 8547 33bd 81f7 75bd
00000150: 71fb 75bd 9adf 9ebd 8dff f2bd 194b 58bd
00000160: 0dba 8cbd 73a7 adbd c02d c4bd 1ec6 5cbd
00000170: 4cef 75bd 30fc 8abd ae75 b9bd 2cbe 83bd
00000180: 64ae 75bd be1e 56bd 098d b8bd 96d0 e2bd
00000190: caf7 75bd d2f6 75bd 4b81 a5bd 0763 acbd
000001a0: 04f7 75bd 2cfa 75bd e587 80bd eaea 75bd
000001b0: 2e86 11be 5d3a 453e ca02 5bbd 5295 76bd
000001c0: 6440 8dbd 3fef 75bd f672 85bd 70fa 75bd
000001d0: d76b b1bd 66f1 75bd 0ffa 75bd 042d 9dbd
000001e0: 71ec 58bd e7fb 94bd f8ef 0cbe b9b7 57bd
000001f0: 72d4 75bd 8316 90bd 1321 50bd 39fa 75bd

conv2.lin.weight f4 [128, 128]
0.09510854 0.017089514 0.14282665 -0.19516642 -0.06665202 -0.13151795 0.122196026 0.09082209
0.020309916 0.0910166 -0.12541623 -0.05387949 0.012027232 0.019057173 0.069942795 0.034209944
0.08453745 -0.0035429015 0.12891732 -0.019992584 0.09365127 0.20023051 -0.16887195 0.21106453
0.010658499 -0.036211316 0.01250716 0.1417932 -0.0073852767 -0.19560856 0.17990497 -0.045367703
0.059467968 -0.0601714 -0.19992912 -0.1932322 0.1362969 0.10598391 0.14525418 0.0853994
0.05290105 -0.09912467 0.09411733 0.07870325 0.21127898 0.13429095 0.025120229 0.19979678
0.060255807 0.091666155 -0.08833968 0.1000851 0.03646136 0.119769014 -0.028874302 0.022641009
-0.027690947 -0.13262898 -0.08709413 0.04766439 0.06443292 -0.0006269604 -0.16723537 -3.314134e-05
-0.11695455 -0.16752091 -0.16622217 -0.0507696 0.044500157 -0.044581816 0.042956416 -0.006716757
0.10562496 -0.08466518 -0.077270806 0.1006822 0.11380566 0.08577746 -0.05413983 0.14805835
0.089527115 -0.0016800559 0.12479207 0.025121657 0.044813074 -0.052257307 -0.16534625 0.025311496
-0.136089 -0.06960111 0.09463021 0.08416441 0.087663054 0.017947681 -0.029531218 0.043800283
-0.076606505 -0.005019781 -0.049786557 0.09908684 -0.048760194 -0.14954153 -0.111629575 -0.09172272
-0.084753774 -0.098058835 -0.055084836 -0.061219856 0.16009082 -0.027346704 -0.12839936 -0.08965082
0.087360166 0.07908678 0.027334357 -0.036820076 -0.06298031 -0.08135365 0.034887534 -0.10489269
0.0891494 -0.07452621 -0.059821434 -0.024171809 -0.00030837962 0.06886557 0.06629917 0.15961584
0.04732523 -0.08152149 -0.1902796 -0.040895604 -0.06504839 -0.04641904 0.03657981 -0.059169173
-0.10536428 -0.19347925 0.042867813 0.044002227 0.13644858 -0.09044034 -0.022450203 -0.13951
-0.059612054 -0.07079981 0.06150044 0.090458184 -0.20785712 -0.03118001 -0.2067827 -0.07835336
0.059812307 0.013656041 -0.04964371 -0.119186856 -0.07939519 -0.018861854 -0.04595676 -0.11650801
-0.037320245 0.01985606 -0.08807046 -0.057846166 -0.042284578 -0.12652695 -0.06538905 -0.08809869
-0.17052922 -0.0014218928 -0.18220232 -0.05425217 -0.052571334 0.022045946 -0.15158385 0.007410961
0.15160279 -0.1517716 0.09233439 -0.20030354 0.02793454 0.03357747 -0.11646861 -0.10399628
0.044693384 0.054170575 0.022674806 0.05131452 -0.17381981 -0.07502317 0.06528235 -0.033347573
-0.14374958 0.08095936 -0.07090895 -0.10313523 -0.042956736 -0.13400556 -0.04424209 0.010190415
-0.14379092 -0.15114672 -0.16504721 -0.17648609 0.05209125 -0.13821419 -0.19376896 -0.13132332
-0.030768959 0.05730695 -0.14504391 0.14029944 -0.04996225 -0.02715962 0.04294348 -0.09643766
-0.031815723 -0.2003716 -0.14557497 -0.063591674 -0.009442595 -0.060155757 -0.043657985 0.09236713
-0.014615664 0.01224076 -0.0973733 0.026021184 0.025522957 -0.12808222 -0.12763314 -0.06629134
-0.09830625 -0.0049641593 -0.031390816 -0.010648002 -0.09244216 0.11397883 0.014708781 -0.037098937
-0.089340344 0.014829545 -0.0015923596 -0.021788638 0.055493727 -0.10708237 -0.07091048 -0.064501464
0.05848935 -0.15048678 0.015550728 0.033912864 -0.13807635 -0.0655272 0.06131862 0.021185873
00000000: 44c8 c23d 4fff 8b3c 2641 123e b5d9 47be
00000010: db80 88bd a4ac 06be e941 fa3d ef00 ba3d
00000020: fb60 a63c e966 ba3d 1d6d 00be bdb0 5cbd
00000030: de0d 453c ca1d 9c3c 2b3e 8f3d ba1f 0c3d
00000040: f821 ad3d 0630 68bb e702 043e 7dc7 a3bc
00000050: 3dcc bf3d 3a09 4d3e c5ec 2cbe 4d21 583e
00000060: fca0 2e3c 5152 14bd d5ea 4c3c 3d32 113e
00000070: 3100 f2bb 9c4d 48be 0239 383e 7cd3 39bd
00000080: af94 733d 4976 76bd 38ba 4cbe a9de 45be
00000090: 6a91 0b3e 180e d93d 83bd 143e e1e5 ae3d
000000a0: c5ae 583d e001 cbbd 96c0 c03d 2b2f a13d
000000b0: 8459 583e 9183 093e f0c8 cd3c 8797 4c3e
000000c0: cbce 763d 77bb bb3d 6feb b4bd 6bf9 cc3d
000000d0: 8258 153d 7549 f53d cd89 ecbc a379 b93c
000000e0: 20d8 e2bc e4cf 07be 685e b2bd bc3b 433d
000000f0: 68f5 833d 9a5a 24ba c03f 2bbe 3e01 0bb8
00000100: de85 efbd 9a8a 2bbe 2536 2abe c9f3 4fbd
00000110: cc45 363d 6c9b 36bd 11f3 2f3d 3e18 dcbb
00000120: e651 d83d f064 adbd 2840 9ebd 7832 ce3d
00000130: f112 e93d 18ac af3d bac1 5dbd 9c9c 173e
00000140: fe59 b73d 5235 dcba fc92 ff3d efcb cd3c
00000150: ea8d 373d c20b 56bd 8750 29be 0e5a cf3c
00000160: ea5a 0bbe 078b 8ebd 7ccd c13d 645e ac3d
00000170: b088 b33d 0407 933c 74eb f1bc ed67 333d
00000180: dfe3 9cbd fa7c a4bb fdec 4bbd 0bee ca3d
00000190: c5b8 47bd 6a21 19be 0c9e e4bd 1fd9 bbbd
000001a0: 6393 adbd 12d3 c8bd a3a0 61bd acc1 7abd
000001b0: d9ee 233e 3206 e0bc 1f7b 03be d99a b7bd
000001c0: e3e9 b23d 40f8 a13d 4dec df3c a6d0 16bd
000001d0: d2fb 80bd be9c a6bd 3be6 0e3d fbd1 d6bd
000001e0: f693 b63d 33a1 98bd 5207 75bd f503 c6bc
000001f0: 03ae a1b9 6409 8d3d dcc7 873d 5672 233e
00000200: 1ad8 413d bdf4 a6bd a8d8 42be 2682 27bd
00000210: 1738 85bd e421 3ebd b6d4 153d 605b 72bd
00000220: 3ac9 d7bd 6d1f 46be 2996 2f3d ae3b 343d
00000230: 2db9 0b3e c938 b9bd 7de9 b7bc b6db 0ebe
00000240: c52b 74bd 7eff 90bd e3e7 7b3d 2442 b93d
00000250: 7fd8 54be 386d ffbc d8be 53be ba77 a0bd
00000260: c0fd 743d 96bd 5f3c 3457 4bbd 3d18 f4bd
00000270: f299 a2bd 2d84 9abc 283d 3cbd c09b eebd
00000280: 1ddd 18bd 2da9 a23c 495e b4bd 1af0 6cbd
00000290: 9832 2dbd 4890 01be b2ea 85bd 166d b4bd
000002a0: 369f 2ebe ce5e baba 3f93 3abe 8637 5ebd
000002b0: 0a55 57bd b399 b43c cc38 1bbe a6d7 f23b
000002c0: c33d 1b3e 046a 1bbe d019 bd3d 5f1c 4dbe
000002d0: fad6 e43c 8788 093d 1887 eebd 00fc d4bd
000002e0: 6910 373d f7e1 5d3d 84c0 b93c 2d2f 523d
000002f0: d2fd 31be bfa5 99bd c1b2 853d 7797 08bd
00000300: 1733 13be 05ce a53d b638 91bd 9038 d3bd
00000310: 67f3 2fbd c138 09be 3237 35bd b3f5 263c
00000320: ed3d 13be 35c6 1abe 2302 29be c5b8 34be
00000330: a25d 553d 0588 0dbe 5f6b 46be 9f79 06be
00000340: 2f0f fcbc b1ba 6a3d 6486 14be a8aa 0f3e
00000350: 37a5 4cbd da7d debc 81e5 2f3d 1c81 c5bd
00000360: 3451 02bd 362e 4dbe 9b11 15be 5a3c 82bd
00000370: 1db5 1abc e265 76bd b7d2 32bd fa2a bd3d
00000380: 8a76 6fbc 788d 483c a76b c7bd 612a d53c
00000390: 8515 d13c fc27 03be 43b2 02be c1c3 87bd
000003a0: ca54 c9bd 63aa a2bb a893 00bd f574 2ebc
000003b0: 5152 bdbd bc6d e93d 19fd 703c 0ef5 17bd
000003c0: 12f8 b6bd 9ff7 723c b9b6 d0ba 167e b2bc
000003d0: 644d 633d 004e dbbd 8439 91bd 5819 84bd
000003e0: 8792 6f3d 3519 1abe 7bc8 7e3c 37e8 0a3d
000003f0: e363 0dbe 2033 86bd 3c29 7b3d ff8d ad3c

lin1.weight f4 [128, 256]
-0.040323544 -0.0013585398 0.062224 -0.10657286 -0.043582298 -0.0418566 -0.024750412 -0.022316882
0.08260433 0.02386023 -0.118864216 0.040417474 -0.026704827 -0.010644563 0.0003556013 -0.03203694
0.022963762 -0.052935895 0.025345147 -0.049425863 -0.06410088 0.05553139 0.041271914 -0.020655442
-0.097582415 -0.04564029 -0.03993641 -0.06561419 -0.10700374 -0.11454742 -0.0055540637 -0.063061446
-0.01522012 -0.008584939 0.04118324 -0.11238644 -0.104139544 -0.039206255 -0.007401275 0.119753
0.0013266131 -0.021401884 0.02009213 0.001007405 -0.039093394 -0.081446506 -0.00036625564 -0.04181667
0.087878734 -0.08161458 0.06489075 -0.026025316 -0.10672356 0.05804354 0.063520096 0.100237116
-0.018321173 -0.055702344 -0.036932472 -0.074412294 -0.04533702 0.025073754 -0.03597668 -0.055965975
0.05544015 0.0015846938 -0.0070072906 -0.009836827 -0.020527301 -0.07630303 0.042632952 -0.11298411
0.081961945 0.04367868 0.044902965 -0.11040521 -0.02867152 -0.008484632 -0.0656547 0.07564318
-0.09002649 -0.04902829 -0.020981655 -0.017062144 -0.04664701 0.012722626 -0.05846913 -0.02096492
-0.11216397 -0.007849253 -0.073552065 0.018175423 -0.052330315 -0.017075136 -0.10258518 -0.11976401
-0.099108025 0.009618034 0.00063909043 0.067099884 -0.041397907 -0.0750471 -0.041404083 -0.055274352
0.0014521996 -0.061408043 0.04327381 -0.008297496 0.018941173 0.0054550683 0.032736234 -0.016634855
-0.011969141 -0.006178476 -0.0047799516 -0.10326141 -0.08842464 -0.118524514 -0.10098728 -0.0252027
-0.089374855 0.12955426 -0.09124506 -0.0201389 -0.06966327 -0.029831046 -0.0761371 -0.029906362
-0.08968387 -0.063723885 0.03688194 -0.046555083 -0.015606463 -0.08091771 -0.024860501 -0.06796885
0.10765186 0.0012755145 -0.0788336 0.06987045 -0.012948699 0.055757873 0.031065628 -0.060019504
0.038953215 -0.116887175 -0.009734832 0.028735168 -0.06932678 0.064964086 0.10538491 -0.105731174
-0.12191429 -0.016374772 -0.0775105 -0.103923455 -0.054149255 -0.049812056 -0.017948447 -0.11430697
-0.0133864805 -0.085425764 -0.015809901 -0.06967218 -0.119140185 -0.06429384 -0.11429831 0.07098812
-0.062631026 -0.00030258822 0.061932676 -0.018404033 -0.010059679 -0.060557086 -0.046568684 -0.04923014
0.058521826 -0.09336284 0.039879296 -0.060672645 -0.10990305 0.17091075 0.0872429 -0.012696059
-0.09636627 -0.055583946 -0.0139997555 -0.009277112 -0.017290764 0.058316037 0.00865604 -0.11176192
-0.02234748 -0.04856568 -0.052383874 -0.109027766 -0.04423413 0.0628352 0.051903047 -0.02733637
0.049340215 0.061951086 -0.007983483 -0.03838923 -0.04317617 0.037591964 0.081661925 0.036836658
-0.09183201 -0.006286204 -0.042461723 -0.0025786457 -0.023007168 -0.05774364 -0.08428253 -0.016668007
-0.010367085 -0.063754536 -0.07421355 0.05497445 0.1044442 -0.0532792 -0.009832108 0.11617408
-0.025106354 -0.014909202 -0.06741661 0.042032015 0.045588855 -0.01889369 0.11280516 -0.003344944
-0.0777474 -0.07414803 -0.015776418 -0.034388248 0.02744973 -0.013948509 0.005803488 -0.1121558
-0.006629239 0.07711592 -0.096482106 -0.04769698 -0.10832101 -0.08512846 -0.0906766 -0.058431502
-0.09012041 -0.035888437 -0.106057405 -0.04488749 -0.023987519 -0.077760555 -0.05123981 -0.054006234
00000000: 4d2a 25bd 0811 b2ba 98de 7e3d df42 dabd
00000010: 5a83 32bd d471 2bbd 60c1 cabc e5d1 b6bc
00000020: 752c a93d 8776 c33c 156f f3bd cb8c 253d
00000030: 15c4 dabc 8866 2ebc 0070 ba39 2b39 03bd
00000040: 801e bc3c 4fd3 58bd a0a0 cf3c c672 4abd
00000050: 5247 83bd e274 633d bd0c 293d 9a35 a9bc
00000060: 4ad9 c7bd 50f1 3abd 5c94 23bd bc60 86bd
00000070: c724 dbbd d697 eabd ddfe b5bb 5c26 81bd
00000080: cf5d 79bc d8a7 0cbc c2af 283d dd2a e6bd
00000090: 1d47 d5bd bd96 20bd 6586 f2bb 1041 f53d
000000a0: c0e1 ad3a 0153 afbc 4098 a43c e70a 843a
000000b0: 6520 20bd 6dcd a6bd 0006 c0b9 f547 2bbd
000000c0: c4f9 b33d 8b25 a7bd 71e5 843d 0b33 d5bc
000000d0: e291 dabd 10bf 6d3d d316 823d 1e49 cd3d
000000e0: 4916 96bc 2428 64bd 8146 17bd 7965 98bd
000000f0: 50b3 39bd 7967 cd3c 495c 13bd 943c 65bd
00000100: 3615 633d 80b5 cf3a 6a9d e5bb a52a 21bc
00000110: df28 a8bc c344 9cbd e49f 2e3d 3764 e7bd
00000120: aadb a73d 6ae8 323d 2cec 373d 201c e2bd
00000130: 89e0 eabc 2003 0bbc f975 86bd d0ea 9a3d
00000140: cf5f b8bd e3d1 48bd b8e1 abbc e9c5 8bbc
00000150: ef10 3fbd 9072 503c 547d 6fbd a0be abbc
00000160: 39b6 e5bd 279a 00bc 77a2 96bd a0e4 943c
00000170: 5058 56bd 28e1 8bbc 2e18 d2bd d546 f5bd
00000180: 26f9 cabd f594 1d3c a288 273a aa6b 893d
00000190: da90 29bd 4bb2 99bd 5497 29bd 5c67 62bd
000001a0: bc57 be3a 0087 7bbd e13f 313d 38f2 07bc
000001b0: 852a 9b3c 6ec0 b23b 6e16 063d d245 88bc
000001c0: 371a 44bc d074 cabb 24a1 9cbb b87a d3bd
000001d0: fa17 b5bd fbbc f2bd 6bd2 cebd e575 cebc
000001e0: 2a0a b7bd dfa9 043e b1de babd 56fa a4bc
000001f0: 9eab 8ebd 3d60 f4bc c5ed 9bbd 30fe f4bc
00000200: 2dac b7bd ab81 82bd 8411 173d 8bb0 3ebd
00000210: 40b2 7fbc 2fb8 a5bd 40a8 cbbc 4133 8bbd
00000220: 9478 dc3d 2a2f a73a 8373 a1bd 3d18 8f3d
00000230: c826 54bc 5e62 643d 587d fe3c 03d7 75bd
00000240: 688d 1f3d 8b62 efbd d87e 1fbc 0466 eb3c
00000250: 33fb 8dbd e40b 853d 0bd4 d73d 9689 d8bd
00000260: 33ae f9bd 6324 86bc d3bd 9ebd d2d5 d4bd
00000270: 9ccb 5dbd ba07 4cbd 9f08 93bc c619 eabd
00000280: f852 5bbc b4f3 aebd c483 81bc 4ab0 8ebd
00000290: c5ff f3bd 7dac 83bd 3b15 eabd 3862 913d
000002a0: b244 80bd b4a4 9eb9 1ead 7d3d 0ec4 96bc
000002b0: 5ad1 24bc b50a 78bd cebe 3ebd 8ba5 49bd
000002c0: 95b4 6f3d 0435 bfbd 7958 233d e183 78bd
000002d0: da14 e1bd 3a03 2f3e 68ac b23d 2203 50bc
000002e0: ae5b c5bd feab 63bd 3b5f 65bc 07ff 17bc
000002f0: 5ca5 8dbc ccdc 6e3d 10d2 0d3c 6fe3 e4bd
00000300: 1012 b7bc ceec 46bd 7990 56bd f349 dfbd
00000310: d92e 35bd beaf 803d 4a98 543d 86f0 dfbc
00000320: f718 4a3d 6cc0 7d3d 28cd 02bc 063e 1dbd
00000330: 7fd9 30bd 08fa 193d 5e3e a73d 09e2 163d
00000340: 6c12 bcbd 80fc cdbb 58ec 2dbd 7ffe 28bb
00000350: 8779 bcbc 9884 6cbd 529c acbd 588b 88bc
00000360: b5da 29bc bd91 82bd 46fd 97bd e42c 613d
00000370: d7e6 d53d 4a3b 5abd da16 21bc adec ed3d
00000380: d7ab cdbc ba45 74bc b811 8abd c329 2c3d
00000390: 61bb 3a3d f1c6 9abc 6406 e73d d936 5bbb
000003a0: 073a 9fbd ecda 97bd 8c3d 81bc b1da 0cbd
000003b0: 42de e03c 4988 64bc 302b be3b f1b1 e5bd
000003c0: 163a d9bb f4ee 9d3d 6998 c5bd e95d 43bd
000003d0: 68d7 ddbd d457 aebd a7b4 b9bd df55 6fbd
000003e0: 0d91 b8bd c1ff 12bd a034 d9bd f2db 37bd
000003f0: 7981 c4bc ed40 9fbd d6e0 51bd a435 5dbd

lin1.bias f4 [128]
-0.15809421 0.2436079 -0.26853192 -0.10817278 -0.122593865 -0.09020994 -0.023133291 -0.051841952
-0.024597505 -0.087495 -0.11390085 -0.09350698 -0.18648407 -0.16478278 -0.04322807 -0.03269126
-0.09002495 -0.076172315 -0.09301253 -0.112143494 0.026521666 -0.02594518 0.043501396 -0.13175967
-0.096706234 -0.0738046 0.20484856 -0.13819002 -0.1030834 -0.07235649 -0.04353116 -0.0625793
-0.048513293 -0.008583969 -0.09825086 -0.10275167 0.26290682 -0.11668538 0.13592507 -0.06141319
-0.10265594 0.020828215 -0.069697574 -0.10261383 -0.09913281 -0.12425703 -0.07632101 0.014691231
0.04193818 0.15431502 -0.11925303 -0.18943582 -0.07746568 -0.13247314 -0.02342227 -0.037500154
0.008722041 -0.050633986 0.24484752 -0.052080706 -0.061757524 -0.016608948 -0.028392944 -0.332038
-0.078944 -0.11020645 -0.30410928 -0.11157432 -0.06525621 -0.010047678 0.41657397 -0.111239806
-0.043190878 -0.037197836 -0.063873865 -0.060505796 0.01307636 -0.051363792 -0.071479194 0.24604361
-0.22014597 -0.05020372 0.025968041 0.05432966 -0.019990027 0.16562033 -0.099951155 0.0018985495
-0.04679518 0.38680902 -0.082750864 -0.090751395 0.11444009 -0.10321906 -0.29501206 -0.10745176
-0.065565765 -0.015132889 -0.08062632 -0.30274847 -0.015624799 -0.1283519 -0.08619425 0.36117274
-0.103256166 0.1424625 -0.10902673 -0.00243728 -0.10595165 0.031368002 -0.08494667 -0.09446604
0.062941596 -0.057618693 -0.004794064 0.03009864 -0.1649466 -0.04574462 -0.07969426 0.021436976
-0.03165303 -0.026102882 0.23601164 -0.044172656 -0.23955365 -0.052072816 0.0020316003 -0.115326054
00000000: 73e3 21be 5974 793e 047d 89be b189 ddbd
00000010: 7e12 fbbd fdbf b8bd 0782 bdbc 3a58 54bd
00000020: b580 c9bc 9430 b3bd d944 e9bd 9680 bfbd
00000030: aef5 3ebe d1bc 28be eb0f 31bd 45e7 05bd
00000040: 005f b8bd 3b00 9cbd 5a7d bebd 7dab e5bd
00000050: f743 d93c fc8a d4bc 852e 323d 02ec 06be
00000060: eb0d c6bd de26 97bd d2c3 513e af81 0dbe
00000070: 641d d3bd a42f 94bd bb4d 32bd 9329 80bd
00000080: e0b5 46bd c7a3 0cbc bf37 c9bd 786f d2bd
00000090: b99b 863e bff8 eebd f12f 0b3e 668c 7bbd
000000a0: 473d d2bd ef9f aa3c 9abd 8ebd 3327 d2bd
000000b0: 2506 cbbd 787a febd 314e 9cbd 7db3 703c
000000c0: 5ec7 2b3d c204 1e3e ef3a f4bd 77fb 41be
000000d0: 54a6 9ebd 0aa7 07be 0fe0 bfbc c399 19bd
000000e0: e4e6 0e3c 9565 4fbd 4fb9 7a3e 9452 55bd
000000f0: 75f5 7cbd 7d0f 88bc 5298 e8bc e200 aabe
00000100: 64ad a1bd ebb3 e1bd 36b4 9bbe 1481 e4bd
00000110: 0ca5 85bd 049f 24bc 2f49 d53e b2d1 e3bd
00000120: ebe8 30bd c25c 18bd 4dd0 82bd edd4 77bd
00000130: 3b3e 563c d762 52bd af63 92bd dbf2 7b3e
00000140: f26d 61be 6aa2 4dbd eeba d43c c788 5e3d
00000150: 20c2 a3bc 6098 293e 31b3 ccbd c0d8 f83a
00000160: 4dac 3fbd d50b c63e 4979 a9bd dedb b9bd
00000170: 915f ea3d 8464 d3bd d20b 97be ab0f dcbd
00000180: 5847 86bd f0ef 77bc 691f a5bd d901 9bbe
00000190: 28ff 7fbc ae6e 03be 9c86 b0bd a2eb b83e
000001a0: f877 d3bd b1e1 113e 6849 dfbd c6ba 1fbb
000001b0: 2efd d8bd bc7b 003d 85f8 adbd 6977 c1bd
000001c0: 86e7 803d 9401 6cbd 8617 9dbb 6c91 f63c
000001d0: c3e7 28be b65e 3bbd bf36 a3bd 999c af3c
000001e0: 9ca6 01bd b6d5 d5bc 09ad 713e 63ee 34bd
000001f0: 8d4d 75be 4e4a 55bd 9924 053b 1130 ecbd

lin2.weight f4 [128, 128]
0.021652566 -0.11079304 -0.031710874 -0.028145263 -0.0017299843 0.021966388 -0.10171107 -0.019946612
0.00795581 -0.13643447 -0.06664155 -0.11754036 -0.032429166 0.000674277 0.0065645096 0.0006476706
-0.07231797 0.065950364 0.071866594 -0.014701411 -0.053094946 0.012371573 -0.08671645 0.031171858
-0.04310712 -0.11068884 -0.10920882 0.08477187 -0.04540077 -0.025833594 -0.013298948 -0.08382468
0.039740905 -0.0031261055 -0.009961096 -0.018621558 -0.10221198 -0.10174957 -0.026975706 -0.051955894
-0.066158414 -0.015032637 -0.11315827 0.02450896 -0.07264909 0.038912304 -0.09053419 -0.040370498
-0.14433412 -0.020619545 -0.14661223 -0.051800333 0.014357935 0.056394473 -0.0045677028 -0.07736836
-0.010691485 -0.0014865957 0.0520544 -0.16317298 -0.029530747 -0.08803676 0.06871623 -0.05049943
-0.094328634 -0.035643857 0.003960729 -0.08649334 -0.053677835 -0.048852548 -0.04586241 -0.14798409
-0.01741136 0.1374 0.007282136 -0.04852278 -0.043784574 0.0018192828 0.03908177 -0.13737045
-0.14284913 0.10952757 0.05120811 -0.05190716 0.013639944 -0.021475216 -0.01198166 -0.13512434
-0.041328724 -0.026787141 -0.07592028 0.01867246 -0.035627235 -0.11019704 0.002640321 -0.001511218
0.012261793 -0.14078999 -0.02211546 -0.0022952755 -0.02766066 -0.07688497 -0.0026638666 0.009970114
-0.09839916 0.06836572 0.010767128 -0.11369734 -0.034120385 -0.13223521 -0.1580962 -0.053581666
-0.053162698 -0.03926393 0.028768513 -0.066821754 0.0005627131 -0.13489512 -0.014378821 0.043797657
-0.13838236 -0.114712894 -0.008696672 -0.05286775 0.048764333 0.04720293 -0.0767987 0.04001997
-0.09919603 0.02209787 -0.09658635 -0.0016270053 0.01348228 0.047702204 0.08412947 0.016980143
-0.07746264 0.059502352 0.022686427 -0.045976184 0.02206879 0.0043325587 0.13173111 -0.032952353
-0.005549802 -0.08789736 -0.020968854 -0.07676211 -0.065416485 0.07129772 -0.034680154 0.032231897
-0.09060689 0.025734976 -0.0067105917 0.08205744 -0.028896447 0.011834614 0.06365464 0.025188182
0.042019513 0.06922136 -0.0014513868 0.024402563 -0.101192445 -0.01852028 0.14733645 0.01669641
-0.016477868 0.0092208525 -0.065627776 0.041905936 0.13421929 0.08081232 -0.027830672 -0.028845983
0.053289272 0.019208139 0.08018937 -0.10622527 -0.11538771 -0.0013285273 0.032083582 0.034994096
0.16976264 -0.042336628 -0.0072575756 -0.060308605 0.02996368 -0.08577641 0.049186245 0.052107893
0.03474207 -0.014118414 -0.023604596 -0.013622283 -0.026030762 -0.10060407 -0.05915068 0.01714373
-0.015361188 -0.06641359 0.11770362 -0.016388742 -0.11635901 0.057974875 -0.0067877076 0.2210023
0.0072551942 0.027973 0.007624998 0.023472823 0.11346296 0.04513479 -0.09240802 -0.051634304
-0.05790364 0.039865404 -0.059581522 0.051320836 0.19276911 0.0046265963 -0.021678315 0.059008513
-0.05750674 0.1086056 0.048982125 -0.025836589 -0.02221514 -0.04299635 -0.018266832 0.018798048
-0.12177341 0.062364332 -0.008810899 -0.08406719 0.047798783 -0.022567917 0.043578733 0.064119555
0.04410074 0.0072897295 -0.08149366 -0.0033780797 0.1119937 0.0431859 -0.012736767 0.03710365
0.05672765 0.039992906 -0.05004751 -0.037707206 -0.0914195 0.020620197 -0.08128572 -0.035162568
00000000: b960 b13c 76e7 e2bd 43e3 01bd e590 e6bc
00000010: a4c0 e2ba dbf2 b33c e54d d0bd 1467 a3bc
00000020: 1659 023c 7ab5 0bbe 5d7b 88bd 00b9 f0bd
00000030: 72d4 04bd f7c1 303a 191b d73b 70c8 293a
00000040: 721b 94bd fc10 873d cb2e 933d 30de 70bc
00000050: 167a 59bd 23b2 4a3c 6598 b1bd 205c ff3c
00000060: 1791 30bd d5b0 e2bd e0a8 dfbd e09c ad3d
00000070: 28f6 39bd f9a0 d3bc d5e3 59bc 46ac abbd
00000080: 5cc7 223d 59df 4cbb dd33 23bc 3d8c 98bc
00000090: 8454 d1bd 1462 d0bd 28fc dcbc b4cf 54bd
000000a0: 107e 87bd 734b 76bc 86bf e7bd 04c7 c83c
000000b0: 0cc9 94bd 8262 1f3d fd69 b9bd 895b 25bd
000000c0: 53cc 13be 52ea a8bc 8421 16be 962c 54bd
000000d0: 8b3d 6b3c e4fd 663d abac 95bb 4d73 9ebd
000000e0: 572b 2fbc e0d9 c2ba ff36 553d d116 27be
000000f0: 77ea f1bc 9e4c b4bd 18bb 8c3d 7ed8 4ebd
00000100: 5f2f c1bd 4bff 11bd 01c9 813b 6c23 b1bd
00000110: 4add 5bbd 9c19 48bd 39da 3bbd 2489 17be
00000120: 45a2 8ebc 96b2 0c3e fc9e ee3b d3bf 46bd
00000130: 7457 33bd 0075 ee3a 3514 203d d7aa 0cbe
00000140: 0b47 12be fe4f e03d 98bf 513d 9a9c 54bd
00000150: 127a 5f3c cbec afbc b94e 44bc 095e 0abe
00000160: 4f48 29bd b570 dbbc 177c 9bbd fdf6 983c
00000170: dded 11bd fcae e1bd 3c09 2d3b 1014 c6ba
00000180: b0e5 483c 402b 10be 7b2b b5bc 556c 16bb
00000190: 9c98 e2bc de75 9dbd 4494 2ebb b059 233c
000001a0: 8085 c9bd 5403 8c3d 9c68 303c 27da e8bd
000001b0: d1c1 0bbd ab68 07be f8e3 21be 7378 5bbd
000001c0: 21c1 59bd 37d3 20bd f2ab eb3c d8d9 88bd
000001d0: 0983 133a f221 0abe 2595 6bbc 2c65 333d
000001e0: 1bb4 0dbe 98ee eabd 7c7c 0ebc db8b 58bd
000001f0: 1cbd 473d dc57 413d a348 9dbd fbeb 233d
00000200: 4a27 cbbd 9806 b53c 10cf c5bd 3d41 d5ba
00000210: c8e4 5c3c 6363 433d 124c ac3d f119 8b3c
00000220: bca4 9ebd bdb8 733d e3d8 b93c 8651 3cbd
00000230: 9bc9 b43c 23f8 8d3b 85e4 063e 0cf9 06bd
00000240: 1ddb b5bb 8803 b4bd e0c6 abbc 7435 9dbd
00000250: 14f9 85bd 8a04 923d c70c 0ebd 9805 043d
00000260: 1b90 b9bd 28d2 d23c 86e4 dbbb bb0d a83d
00000270: 3eb8 ecbc f8e5 413c 5d5d 823d 7257 ce3c
00000280: a71c 2c3d eec3 8d3d 763c beba e2e7 c73c
00000290: fc3d cfbd d8b7 97bc 5edf 163e e9c6 883c
000002a0: 98fc 86bc 0f13 173c db67 86bd 8fa5 2b3d
000002b0: c870 093e ee80 a53d 26fd e3bc 694e ecbc
000002c0: da45 5a3d 635a 9d3c 533a a43d a28c d9bd
000002d0: 6450 ecbd fb21 aeba 136a 033d f855 0f3d
000002e0: 42d6 2d3e 2c69 2dbd f5d0 edbb 2806 77bd
000002f0: 6476 f53c 8bab afbd 8477 493d 166f 553d
00000300: b34d 0e3d ec50 67bc 6d5e c1bc ff2f 5fbc
00000310: 773e d5bc 8209 cebd fc47 72bd 0271 8c3c
00000320: 7ead 7bbc d903 88bd 980e f13d af41 86bc
00000330: a24d eebd 1077 6d3d 6b6b debb 6d4e 623e
00000340: fbbc ed3b a227 e53c 1fdb f93b 144a c03c
00000350: 455f e83d 42df 383d 6a40 bdbd 7e7e 53bd
00000360: 5e2c 6dbd e849 233d c10b 74bd cc35 523d
00000370: 4465 453e b49a 973b b996 b1bc e9b2 713d
00000380: 308c 6bbd 9d6c de3d 7ba1 483d 41a7 d3bc
00000390: 86fc b5bc f11c 30bd 53a4 95bc 5dfe 993c
000003a0: 5664 f9bd be71 7f3d 975b 10bc 6b2b acbd
000003b0: a8c8 433d 5ae0 b8bc 9d7f 323d 1d51 833d
000003c0: faa2 343d afde ee3b 26e6 a6bd c662 5dbb
000003d0: f45c e53d b3e3 303d dfad 50bc fff9 173d
000003e0: 415b 683d 9acf 233d 9efe 4cbd df72 1abd
000003f0: 263a bbbd b0eb a83c 2179 a6bd a006 10bd

lin2.bias f4 [128]
-0.09892378 -0.021194091 -0.081512615 -0.008686204 -0.08167291 -0.10046768 0.2721673 -0.05904576
0.30243954 -0.111975215 -0.06319985 -0.037556786 -0.075346895 0.3768327 -0.077624545 -0.0037962724
0.35268492 -0.070690766 -0.057381466 -0.04564892 -0.12651859 -0.016123522 -0.019130474 -0.07226783
0.14300625 0.004167121 0.34017974 -0.09905078 -0.017748965 -0.055814892 -0.062941894 -0.13717869
0.48479867 -0.29585233 -0.065492645 -0.18705657 -0.039337315 0.4034486 -0.06115926 -0.06285265
-0.0358196 -0.0757781 -0.072893724 -0.15756178 -0.042103842 -0.11587328 0.55364597 -0.001973131
-0.022308612 -0.10306944 -0.07289515 -0.08086458 -0.10335604 -0.10677015 -0.0020773322 -0.10833986
0.42418525 -0.099338025 -0.09836968 -0.12405263 -0.101184465 0.22366081 -0.11211921 0.4801073
-0.108641714 -0.006738912 -0.12356607 -0.02042777 -0.10825198 -0.017082209 -0.043997943 -0.034847453
-0.04719346 0.1157003 0.015038413 -0.025669161 -0.069056764 -0.060636077 -0.0791102 -0.10824946
-0.061033864 -0.0697088 0.07106895 -0.14920668 -0.04325665 -0.14936058 0.0088048 0.00024102064
-0.06437753 -0.040144846 -0.030636147 -0.11564778 -0.096780725 -0.0858242 -0.08425146 0.017442621
0.085981585 -0.07224687 0.015924137 0.049875915 -0.024091344 0.07440938 -0.10205407 -0.1272892
-0.037522957 -0.099028446 -0.021818921 0.06734807 0.24562247 -0.04400378 0.061417196 -0.01737153
0.32539502 -0.023983618 -0.018391369 -0.0043777297 -0.027094103 -0.083366215 -0.023008918 -0.017889729
-0.10319863 -0.075650506 0.1065543 -0.01644445 0.5564239 -0.017925944 -0.10150473 -0.097718574
00000000: 8d98 cabd 3b9f adbc 16f0 a6bd 9550 0ebc
00000010: 2044 a7bd 00c2 cdbd 8359 8b3e f8d9 71bd
00000020: 5bd9 9a3e 4353 e5bd ec6e 81bd 25d5 19bd
00000030: 794f 9abd 37f0 c03e 9ef9 9ebd e2ca 78bb
00000040: 1e93 b43e 52c6 90bd d408 6bbd 5dfa 3abd
00000050: 178e 01be 7a15 84bc 83b7 9cbc 2801 94bd
00000060: 3b70 123e 588c 883b 0a2c ae3e 23db cabd
00000070: 4766 91bc 289e 64bd aee7 80bd 9278 0cbe
00000080: 8837 f83e f579 97be 0221 86bd c28b 3fbe
00000090: 2a20 21bd d190 ce3e 2282 7abd e4b8 80bd
000000a0: 93b7 12bd 8c31 9bbd 4e49 95bd e057 21be
000000b0: 1475 2cbd f84e edbd bebb 0d3f a54f 01bb
000000c0: 8dc0 b6bc 1216 d3bd 0d4a 95bd 549c a5bd
000000d0: 55ac d3bd 4faa dabd da23 08bb 4ae1 ddbd
000000e0: cf2e d93e bc71 cbbd 0b76 c9bd 4e0f febd
000000f0: cd39 cfbd 5707 653e c29e e5bd a0d0 f53e
00000100: 8c7f debd 17d2 dcbb 3510 fdbd 2458 a7bc
00000110: 37b3 ddbd fdef 8bbc 3037 34bd 34bc 0ebd
00000120: ee4d 41bd 47f4 ec3d ad63 763c 2248 d2bc
00000130: a26d 8dbd 895d 78bd 8704 a2bd e5b1 ddbd
00000140: a5fe 79bd 7dc3 8ebd 998c 913d a3c9 18be
00000150: e32d 31bd fbf1 18be 0242 103c 7cba 7c39
00000160: 5ed8 83bd ec6e 24bd a8f8 fabc bed8 ecbd
00000170: f934 c6bd 99c4 afbd 088c acbd d4e3 8e3c
00000180: 1d17 b03d 2bf6 93bd 5673 823c b04a 4c3d
00000190: 365b c5bc f263 983d b901 d1bd 1a58 02be
000001a0: acb1 19bd 6dcf cabd 98bd b2bc c9ed 893d
000001b0: 7584 7b3e 4f3d 34bd 9990 7b3d bd4e 8ebc
000001c0: 2d9a a63e 4b79 c4bc 7fa9 96bc 0f73 8fbb
000001d0: 74f4 ddbc e8bb aabd 337d bcbc 7b8d 92bc
000001e0: ce59 d3bd a7ee 9abd 2439 da3d 83b6 86bc
000001f0: cc71 0e3f 6ed9 92bc b6e1 cfbd ad20 c8bd
